app/src/main/ml/model.tflite (tflite, 991768 bytes, 44 tensors)

sequential/dense_3/BiasAdd/ReadVariableOp/resource f4 [4]
0	0xbf6877b3	-0.90807647
1	0xbf40f816	-0.7537855
2	0x3f68298a	0.90688384
3	0x3f85aa8a	1.0442669

sequential/dense_2/BiasAdd/ReadVariableOp/resource f4 [32]
0	0x3e9cca66	0.30623168
1	0x3f165a7a	0.58731806
2	0x3e168b53	0.14701585
3	0xbf130b78	-0.57439375
4	0x00000000	0.0
5	0x3ca216a1	0.01978618
6	0xbda4ed15	-0.08053032
7	0x3e6063c6	0.2191306
8	0x3df84ba5	0.12123803
9	0xbe87602a	-0.26440555
10	0x3d893d11	0.067011006
11	0xbd8297e2	-0.063766256
12	0x3e168a87	0.14701281
13	0x3d6b6766	0.057471655
14	0x3efecb7a	0.49764615
15	0xbf4c669a	-0.7984406
16	0x3eb89dd4	0.36057913
17	0x3d3e4f18	0.04646215
18	0x3e9ce4a1	0.3064318
19	0xbe98399b	-0.2973145
20	0xbeb4b6e1	-0.35295776
21	0xbe644d36	-0.22295079
22	0x3d32859e	0.04358446
23	0xbd30ccdd	-0.043164123
24	0x3c62e6de	0.013848988
25	0x3ccc0e26	0.02490909
26	0x3f48f5f6	0.78500307
27	0xbd95e089	-0.07318217
28	0xbda38e18	-0.079860866
29	0x3defcd3c	0.11709067
30	0x3e84b58a	0.25919753
31	0x3e62a018	0.22131383

sequential/dense_1/BiasAdd/ReadVariableOp/resource f4 [32]
0	0x3f3b2a0e	0.73111045
1	0x3e10a7f3	0.14126568
2	0xbe70abab	-0.23502986
3	0x3e2470f8	0.16058719
4	0x3dfbc6c4	0.12293771
5	0x3e0002e5	0.12501104
6	0xbd4f0d71	-0.050549928
7	0x3d689fac	0.0567929
8	0x3df55e3d	0.11980865
9	0x3dea7e25	0.114498414
10	0x3e646189	0.22302832
11	0x3f091013	0.5354015
12	0xbd59cbd7	-0.053172912
13	0xbf3a78c5	-0.7284053
14	0xbf0eff83	-0.5585863
15	0xbd17b324	-0.037036076
16	0xbea8d4ee	-0.32974952
17	0x3f0ddd7a	0.5541607
18	0xbd45b4b1	-0.048268024
19	0x3c8f5938	0.017498598
20	0xbf725f36	-0.9467653
21	0xbde20c58	-0.11037511
22	0xbd717e24	-0.058958188
23	0x3f1d4792	0.6143733
24	0x3e560d93	0.20903616
25	0x3d3ace55	0.04560693
26	0xbe0890b4	-0.1333645
27	0xbd68bf5c	-0.05682312
28	0xbd17e6fb	-0.037085515
29	0xbf46de98	-0.776834
30	0xbf569a55	-0.8382924
31	0xbf8ab0f6	-1.0835254

sequential/dense/BiasAdd/ReadVariableOp/resource f4 [64]
0	0x3e0b926b	0.13630073
1	0x3df5898f	0.11989128
2	0x3cd18dbd	0.025580281
3	0x3f670fe3	0.90258616
4	0xbea2ba1c	-0.31782615
5	0x3ea7eab7	0.3279626
6	0x3dab2693	0.08356967
7	0xbf28ba6f	-0.65909475
8	0x3ef9e369	0.48806313
9	0x3e9af864	0.30267632
10	0xbe22eeb4	-0.1591137
11	0x3d9016f6	0.070356295
12	0x3d86cfed	0.065826274
13	0x3e6afa70	0.22947097
14	0x3f4b0563	0.79305094
15	0x3ca4e284	0.020127542
16	0x3ecf299c	0.40461433
17	0xbd2a2cc0	-0.041546583
18	0x3f036cf2	0.5133811
19	0x3c0c3455	0.008557399
20	0x3d9fa5c7	0.077952914
21	0x3d7d2f28	0.06181255
22	0xbcdc57b1	-0.026897283
23	0x3d25f576	0.040517293
24	0xbf262228	-0.6489587
25	0x3e84b550	0.2591958
26	0xbed03bb6	-0.40670556
27	0x3e15a3b9	0.14613236
28	0x3e44c13e	0.19214341
29	0xbe860afa	-0.2618025
30	0x3e9e8b70	0.30965757
31	0xbed54c73	-0.4165989
32	0xbed5c88f	-0.41754577
33	0xbeb904dc	-0.3613652
34	0x3e9b47aa	0.30328113
35	0x3f6f3808	0.9344487
36	0xbe16653b	-0.14687054
37	0x3eb9e2d1	0.3630586
38	0xbf2d68da	-0.67738116
39	0x3c076f01	0.0082662115
40	0xbf3d9b49	-0.7406507
41	0x3db076f8	0.086164415
42	0x3f3a951d	0.7288378
43	0x3d9f2a4d	0.0777174
44	0xbddb8b01	-0.10719872
45	0xbdaafc73	-0.08348932
46	0x3e1fe2a6	0.15613803
47	0xbee65860	-0.449893
48	0xbef2d960	-0.4743147
49	0x3e3832d9	0.17988147
50	0x3e8e3d9b	0.27781376
51	0xbf3190be	-0.69361484
52	0xbe6b6718	-0.22988546
53	0xbd8317e4	-0.06401041
54	0xbf21eb55	-0.63249713
55	0x3e954866	0.29156798
56	0xbeacef0f	-0.33776137
57	0xbf0e7962	-0.55653965
58	0x3eb4a05b	0.35278592
59	0xbf3ebbc5	-0.74505264
60	0x3ea6b163	0.3255721
61	0xbd67333b	-0.05644534
62	0xbe3e69c9	-0.18595041
63	0x3e01d377	0.12678324

sequential/dense/MatMul f4 [64, 64]
0	0xbe39d051	-0.18145873
1	0xbb87b8ed	-0.004141918
2	0x3cdb82eb	0.026795825
3	0xbb681c69	-0.0035417324
4	0x3deb830e	0.11499606
5	0x3e0c41bf	0.13696955
6	0x3d39cf5e	0.045363776
7	0xbc8a0764	-0.016849227
8	0x3e149c87	0.14512835
9	0x3df4d343	0.119543575
10	0x3e2c611a	0.16833916
11	0x3d415379	0.047198746
12	0xbda00104	-0.07812694
13	0x3e2eeded	0.17082949
14	0xbce27841	-0.027645232
15	0x3da86b7e	0.082236275
16	0x3da2d173	0.079501055
17	0xbdb60050	-0.08886778
18	0x3e6ba08f	0.23010467
19	0xbe1a6fb5	-0.15081675
20	0x3e3e26fc	0.18569559
21	0x3e214ff9	0.15753163
22	0xbdea1a5f	-0.11430811
23	0xbcb58618	-0.022158667
24	0x3e391f7b	0.18078415
25	0x3e4acf71	0.19805695
26	0xbe0dac65	-0.13835295
27	0x3d9f18a5	0.077683724
28	0x3e070faf	0.13189577
29	0xbd9b00eb	-0.075685345
30	0x3e55d1fb	0.20880882
31	0xbcd86d90	-0.026419431
32	0x3b71f4bd	0.0036919557
33	0xbd8d5b64	-0.06902197
34	0x3dad15fb	0.08451458
35	0xbd38b8c0	-0.045098066
36	0xbd2c8228	-0.042116314
37	0x3c9130d0	0.01772347
38	0x3c701da4	0.014655504
39	0x3bfb929c	0.0076773893
40	0xbe556ad1	-0.20841528
41	0x3ddc5049	0.10757501
42	0xbdf3662a	-0.118847206
43	0xbe411337	-0.18854986
44	0x3e1b8641	0.15187933
45	0xbe0783e7	-0.1323391
46	0x3d93cd3b	0.07216879
47	0xbe5808a7	-0.2109705
48	0xbd57fa08	-0.052728683
49	0x3cc59e14	0.02412323
50	0xbe18bbe3	-0.14915423
51	0xbd49bc5e	-0.049251907
52	0x3df1369c	0.11777994
53	0xbda64e20	-0.0812037
54	0x3d53f0d0	0.05174333
55	0x3c327b79	0.010893696
56	0x3dea0084	0.114258796
57	0xbdc4aaf8	-0.09602922
58	0xbcce72c4	-0.025201209
59	0x3dd0c2f0	0.101934314
60	0xbe19af8f	-0.15008377
61	0x3e245bed	0.16050692
62	0x3dc589f9	0.09645457
63	0xbd44a097	-0.048004713
64	0xbd7473b7	-0.059680667
65	0x3dfbf9b7	0.12303489
66	0x3d9507fc	0.072769135
67	0xbe166338	-0.14686286
68	0xbe23b7a8	-0.15988028
69	0xbdc44981	-0.09584332
70	0x3e032526	0.1280714
71	0xbe4e33dd	-0.20136972
72	0x3e03f387	0.12885867
73	0xbdeb4b3b	-0.114889584
74	0xbe10b04c	-0.14129752
75	0x3e661a6d	0.22471018
76	0xbe3303d3	-0.17481928
77	0xbe1717b8	-0.14755142
78	0xbdc2287b	-0.09480377
79	0xbc89722a	-0.01677807
80	0xbe6e2111	-0.23254801
81	0x3d382020	0.04495251
82	0x3c4b3f78	0.012405269
83	0xbd95b9a8	-0.07310802
84	0x3d047196	0.032334886
85	0x3c7be3a4	0.015374098
86	0x3ccaf120	0.02477318
87	0x3cd04050	0.025421292
88	0x3d623a54	0.055231407
89	0x3cfa2cd9	0.030538963
90	0xbe1130d1	-0.14178778
91	0x3e18dcd0	0.14927983
92	0xbd442e7a	-0.047895886
93	0xbe103246	-0.14081678
94	0x3e551369	0.20808186
95	0x3e85fe8f	0.26170775
96	0x3d19bcf9	0.037533734
97	0xbdd12842	-0.10212757
98	0x3d089f96	0.033355318
99	0xbe208b17	-0.15678059
100	0xbe00951a	-0.12556878
101	0x3e69917a	0.22809401
102	0x3e154a2f	0.1457908
103	0xbc626005	-0.013816838
104	0xbe8c483b	-0.27398857
105	0xbd09d331	-0.033648673
106	0xbd1ef0b2	-0.038803764
107	0xbe522b7e	-0.20524403
108	0x3deb2f0b	0.11483582
109	0xbdf80ce8	-0.12111837
110	0x3db293f5	0.08719627
111	0x3cca0b74	0.024663664
112	0xbe121d97	-0.142691
113	0xbc84668e	-0.016162183
114	0x3e16ba7b	0.14719574
115	0x3d129742	0.035788782
116	0x3dfc1def	0.12310397
117	0x3d5b9894	0.053612307
118	0xbe61ab08	-0.220379
119	0xbd142481	-0.036167625
120	0xbda4ed7e	-0.080531105
121	0x3e4fe69e	0.20302817
122	0x3cdfe12c	0.02732905
123	0xbe2aa892	-0.16665867
124	0xbd0351d5	-0.032060463
125	0xbd1c85ab	-0.038213413
126	0x3c1580df	0.009124964
127	0x3eb693b2	0.35659558
128	0x3e3703fa	0.1787261
129	0x3dbaf722	0.09129168
130	0x3d68aafa	0.05680368
131	0x3be7b971	0.007071667
132	0x3dcd20e7	0.10016041
133	0x3e01a10d	0.12659092
134	0xbe0ca891	-0.13736178
135	0xbdf13192	-0.11777033
136	0xbe4f7577	-0.20259653
137	0xbe1fc448	-0.15602219
138	0xbe21d667	-0.15804444
139	0x3e34fdda	0.17674962
140	0x3dfd7d18	0.12377375
141	0x3dcfcc8c	0.10146436
142	0xbe077f70	-0.13232207
143	0xbe4d5800	-0.200531
144	0xbe11cd1f	-0.14238404
145	0xbe53c337	-0.20679937
146	0xbdf1872a	-0.117933586
147	0x3d5f4961	0.05451334
148	0x3e20e39b	0.15711825
149	0xbe3f1099	-0.18658675
150	0xbe812186	-0.2522089
151	0xbe3e8f7a	-0.1860942
152	0xbe1ba24a	-0.15198627
153	0xbe6ebe03	-0.23314671
154	0xbce9660b	-0.02849104
155	0xbd27a996	-0.040933214
156	0x3d714bdc	0.058910236
157	0x3e27bfd4	0.1638177
158	0xbe27b6fd	-0.16378398
159	0x3d2b299d	0.041787732
160	0x3e0d1dd0	0.13780904
161	0xbe18c47d	-0.14918704
162	0xbe2c62ac	-0.16834515
163	0xbe312da9	-0.17302574
164	0xbc1df24c	-0.009640288
165	0xbe686fbb	-0.22698872
166	0x3e34a956	0.17642722
167	0xbce3469a	-0.027743626
168	0xbe1d3785	-0.1535321
169	0xbe1f8885	-0.15579422
170	0xbde06498	-0.10956687
171	0xbd940447	-0.07227378
172	0xbdccd4a2	-0.10001494
173	0xbd2c7b14	-0.042109564
174	0x3e680c92	0.22661045
175	0xbd855784	-0.06510833
176	0x3e3c85fa	0.18410483
177	0xbab52621	-0.0013820567
178	0xbde7b67b	-0.11314102
179	0xbde21b7b	-0.11040398
180	0x3e18cc1f	0.14921616
181	0xbdaa638a	-0.08319767
182	0xbde2c229	-0.11072189
183	0xbdd6c58d	-0.104868986
184	0x3e1e74ea	0.15474287
185	0x3c0b7096	0.008510729
186	0xbbe6ad06	-0.007039669
187	0xbe7c9a66	-0.24668273
188	0xbe1746dc	-0.14773124
189	0xbe329ee7	-0.17443429
190	0x3d554c56	0.052074753
191	0xbe131639	-0.14363946
192	0x3dc6e55b	0.09711715
193	0x3e4bcf42	0.19903281
194	0xbdfb53f1	-0.1227187
195	0xbd884d0a	-0.06655319
196	0x3e80e921	0.25177863
197	0x3e06472d	0.13113089
198	0xbe27de2d	-0.16393347
199	0x3e671131	0.22565152
200	0xbe239745	-0.15975673
201	0x3def1cf3	0.116754435
202	0xbd96ba9a	-0.0735981
203	0x3ea16d70	0.31528807
204	0xbe0ec4b5	-0.13942225
205	0x3c1a899b	0.009432222
206	0x3f552e6f	0.8327398
207	0x3dd9d9ed	0.10637269
208	0xbd56f925	-0.052483696
209	0x3e2dc6f4	0.16970426
210	0x3d251744	0.04030539
211	0x3e3824ac	0.17982739
212	0xbc893279	-0.0167477
213	0x3e00e878	0.1258868
214	0x3cf616d5	0.030040184
215	0x3deb28a3	0.1148236
216	0x3e82a855	0.25519052
217	0x3e0c6613	0.13710813
218	0x3e326ab5	0.17423518
219	0xbe5a8119	-0.2133831
220	0x3cd41281	0.02588773
221	0x3d6a8ebd	0.057265032
222	0x3ea3cdfb	0.31993088
223	0x3de7395c	0.11290237
224	0xbcaaa01d	-0.020828301
225	0x3e364bcd	0.17802353
226	0x3d79188a	0.060814418
227	0xbd27768b	-0.040884536
228	0xbd264a11	-0.04059798
229	0x3c49b54d	0.012311292
230	0x3d859a12	0.06523527
231	0xbda6b997	-0.08140867
232	0xbe16df73	-0.14733677
233	0xbddf19f4	-0.10893622
234	0x3cd2f6a3	0.025752371
235	0x3e4fd400	0.20295715
236	0x3db42ca4	0.08797577
237	0x3e2b87b1	0.16750981
238	0x3d2de526	0.04245486
239	0xbe48b544	-0.19600397
240	0xbde64ca7	-0.11245089
241	0xbe016153	-0.12634782
242	0x3e8359fa	0.25654584
243	0x3c51ada1	0.012797744
244	0xbd7114a4	-0.058857575
245	0xbdcb1a27	-0.099170975
246	0x3e02f281	0.1278782
247	0x3e1aadca	0.15105358
248	0x3d6eefd8	0.0583342
249	0xbe1c3f53	-0.15258531
250	0xbcb62c1f	-0.022237835
251	0x3e2be7e1	0.16787674
252	0x3e41417d	0.18872638
253	0xbbba628a	-0.0056880163
254	0x3dff9a98	0.12480658
255	0xbee73fb2	-0.45165783

sequential/dense_1/MatMul f4 [32, 64]
0	0xbda62c75	-0.08113948
1	0xbb18f558	-0.0023339596
2	0xbe07198e	-0.13193342
3	0x3ccdd8d2	0.025127802
4	0x3deb6acd	0.1149498
5	0x3e1d1633	0.153405
6	0x3e2f5cee	0.17125294
7	0xbe5f66a3	-0.21816497
8	0x3e35f461	0.17769004
9	0x3c569e28	0.013099231
10	0xbdd78df5	-0.10525123
11	0x3de77fd7	0.113036804
12	0x3c6f2c94	0.014598031
13	0x3e80ce01	0.25157169
14	0x3eac7b47	0.33687803
15	0x3e10d63b	0.14144222
16	0xbe2f58cb	-0.17123716
17	0xbd9716d6	-0.073774025
18	0x3c75e03c	0.015007075
19	0xbe4c4a9f	-0.1995034
20	0x3e1c887e	0.15286443
21	0xbe500116	-0.20312914
22	0xbe6e79bc	-0.23288625
23	0x3e1e3337	0.15449224
24	0x3df61299	0.12015266
25	0x3e1abb9f	0.15110634
26	0xbe281bb0	-0.16416812
27	0x3d9b9088	0.075959265
28	0x3e325020	0.17413378
29	0x3e5889df	0.21146344
30	0xbe0548c7	-0.13016044
31	0xbe1042b9	-0.14087953
32	0x3e04b91e	0.12961242
33	0x3e46cdbd	0.1941442
34	0xbe1a4805	-0.15066536
35	0xbc937aa7	-0.018002821
36	0xbe514123	-0.20435004
37	0xbe1d57fa	-0.15365592
38	0x3e6e5bae	0.2327716
39	0xbd893844	-0.06700185
40	0x3e20b8be	0.15695474
41	0xbe1485e7	-0.14504205
42	0x3d9f4e65	0.077786244
43	0xbd09ee87	-0.033674743
44	0x3e6c9527	0.23103772
45	0xbe1b5f5c	-0.15173095
46	0x3e685171	0.22687317
47	0xbdbef51e	-0.09324096
48	0x3cd0594d	0.025433207
49	0xbe059776	-0.13046059
50	0xbe61b4e5	-0.22041662
51	0xbdda73e4	-0.10666636
52	0x3e6737e2	0.22579911
53	0x3dc3837a	0.095465615
54	0xbcaab787	-0.020839466
55	0x3d878f5c	0.066191405
56	0x3e84a3fb	0.25906357
57	0x3e55ac17	0.20866428
58	0x3dc3fb37	0.095694
59	0xbdab9784	-0.08378509
60	0xbe0e381d	-0.13888593
61	0x3e2c6353	0.16834764
62	0xbcf61503	-0.030039316
63	0xbdb3885c	-0.08766243
64	0xbd14464f	-0.036199864
65	0xbd356638	-0.044286937
66	0x3db0c08b	0.08630475
67	0xbd042924	-0.032265797
68	0xbdc12a1a	-0.09431858
69	0x3e30d912	0.17270306
70	0xbdd2fdea	-0.103023365
71	0x3df325b9	0.118724294
72	0x3dce7429	0.100807495
73	0x3e5a8ff3	0.21343975
74	0xbe83f4cb	-0.257727
75	0xbe473f3d	-0.19457717
76	0xbe4215e8	-0.18953669
77	0xbd3282dc	-0.04358183
78	0x3d99571f	0.0748732
79	0xbe2fc262	-0.17163995
80	0x3e77ba31	0.2419212
81	0xbdaf40de	-0.08557294
82	0xbdc8d844	-0.098068744
83	0x3ddf8cbc	0.10915515
84	0xbd7d75d8	-0.061879963
85	0xbe4ff20a	-0.20307174
86	0xbc985b07	-0.018598093
87	0xbcbcbc1c	-0.023038916
88	0xbe18d97a	-0.1492671
89	0xbde5a3fc	-0.11212918
90	0xbdb71249	-0.089390345
91	0xbe4b0e57	-0.19829689
92	0x3e5f1434	0.2178505
93	0x3e23b563	0.15987162
94	0xbe12e180	-0.14343834
95	0x3befb415	0.0073151686
96	0xbc6ce44a	-0.014458725
97	0xbe32239b	-0.17396395
98	0x3bae09b7	0.0053112167
99	0x3df3e9c3	0.11909821
100	0x3e91bca0	0.28464222
101	0xbd92d938	-0.071703374
102	0x3d5238d8	0.05132374
103	0x3d0ebed6	0.034849964
104	0x3dfa466d	0.12220464
105	0x3e1ff3ec	0.15620393
106	0x3da25182	0.07925703
107	0x3be6a431	0.007038616
108	0xbd4abcb1	-0.049496356
109	0x3e2e5cb6	0.17027554
110	0xbdf6729d	-0.120335795
111	0xbe4fda07	-0.20298015
112	0xbe8fe315	-0.28102937
113	0xbd076e90	-0.033064425
114	0xbd8cb94d	-0.06871281
115	0xbd03eabc	-0.032206282
116	0x3e025666	0.12728271
117	0x3e12657d	0.14296527
118	0xbe3288e8	-0.17435038
119	0xbdd1c8a8	-0.1024335
120	0xbe3c35c4	-0.18379885
121	0x3e732a6c	0.23746651
122	0x3dbffbfc	0.09374234
123	0xbdaa9d9e	-0.08330844
124	0x3e53b518	0.2067455
125	0xbd7a0cb5	-0.061047275
126	0x3debfa80	0.115223885
127	0x3e0a6798	0.1351608
128	0xbe41e65f	-0.18935536
129	0xbe2462e7	-0.16053353
130	0x3e4c91f1	0.19977547
131	0x3e17c4c1	0.1482115
132	0x3e5d0270	0.21582961
133	0x3e078b93	0.13236837
134	0x3d812a90	0.06306946
135	0x3c13e0b4	0.009025741
136	0x3e3730ed	0.17889757
137	0x3d3616ff	0.044455525
138	0x3c0e1dc6	0.008674091
139	0x3dfce0c7	0.123475604
140	0x3d02d1bb	0.031938296
141	0xbe15d96a	-0.14633718
142	0xbe6c8940	-0.23099232
143	0x3e27aa92	0.16373661
144	0x3dc2e431	0.0951618
145	0x3e6db4f2	0.23213556
146	0xbd070b9a	-0.03297005
147	0xbea0bfa4	-0.3139621
148	0xbdd92d08	-0.10604292
149	0x3db6cee1	0.08926178
150	0x3db844a3	0.089974664
151	0xbe3072ec	-0.17231339
152	0x3e0f1f8c	0.13976878
153	0xbd3e59a6	-0.046472214
154	0xbd93b632	-0.072124854
155	0xbe4e889c	-0.201693
156	0x3df0b719	0.11753673
157	0xbc333104	-0.010936979
158	0xbe585948	-0.21127808
159	0x3d337717	0.043814745
160	0xbe76ea6e	-0.24112865
161	0x3cab8cb6	0.02094112
162	0xbc2141a4	-0.00984231
163	0xbe6317f8	-0.22177112
164	0xbeba9404	-0.36441052
165	0xbc89bbfa	-0.016813267
166	0x3db7e200	0.08978653
167	0x3e5b459f	0.21413277
168	0xbe6a2ae1	-0.2286792
169	0xbbb4e373	-0.005520278
170	0x3dd01c72	0.101616755
171	0x3e48f01d	0.19622846
172	0xbe17765c	-0.14791244
173	0xbdc7fb43	-0.09764721
174	0xbdf4bcff	-0.11950111
175	0x3e017aeb	0.12644546
176	0xbcedb407	-0.029016508
177	0xbe697c4d	-0.22801323
178	0xbe94f710	-0.29094744
179	0x3cb1a234	0.02168379
180	0x3dbf1f4d	0.09332142
181	0xbd886551	-0.066599496
182	0x3e802613	0.25029048
183	0xbe76104b	-0.24029653
184	0x3e5e80d7	0.21728836
185	0x3db81709	0.089887686
186	0x3d9a5690	0.07536042
187	0xbe2b6449	-0.16737475
188	0xbe3662cd	-0.17811127
189	0xbda54d50	-0.08071387
190	0x3e0a5813	0.1351016
191	0xbd5f1ad4	-0.054468945
192	0xbe027333	-0.12739258
193	0x3e93fe4c	0.2890495
194	0x3ce94014	0.028472938
195	0x3dc5e366	0.096625134
196	0x3db8322a	0.08993943
197	0x3da8f90c	0.08250627
198	0xbc4e0e9e	-0.012576727
199	0xbe1040bc	-0.14087194
200	0xbea35b72	-0.31905705
201	0xbeb77e70	-0.35838652
202	0x3d5b6522	0.053563245
203	0x3e1dc32d	0.15406485
204	0xbdc3673f	-0.09541177
205	0xbe8d5622	-0.27604777
206	0xbe5e2663	-0.21694331
207	0x3e60896c	0.21927422
208	0xbe50172d	-0.20321341
209	0xbd1269ac	-0.035745308
210	0xbde7d2a8	-0.11319476
211	0x3e73722e	0.23774025
212	0xbdd202cb	-0.10254439
213	0x3e34e581	0.17665674
214	0xbde07cb7	-0.109612875
215	0xbc936162	-0.017990772
216	0xbe1f7efe	-0.15575787
217	0xbdc21e76	-0.09478466
218	0x3e9498dd	0.29022875
219	0xbe24644d	-0.16053887
220	0xbdd07243	-0.10178044
221	0xbe736d40	-0.23772144
222	0xbe5b887e	-0.21438786
223	0xbeb68120	-0.3564539
224	0xbe6f04a7	-0.23341618
225	0xbdf1e2cc	-0.11810836
226	0x3d69d9e6	0.05709257
227	0x3e385ee9	0.18004955
228	0xbe4caa1e	-0.1998677
229	0x3d70a2cc	0.058749005
230	0xbe4f721d	-0.20258375
231	0xbe72ac59	-0.23698558
232	0xbd86435c	-0.065558165
233	0xbde4c41d	-0.11170218
234	0x3e33b318	0.17548788
235	0xbcc3f196	-0.023918908
236	0x3e003dbf	0.12523554
237	0xbe08274b	-0.13296239
238	0xbdb13814	-0.08653274
239	0xbde6fdd9	-0.11278886
240	0xbe9f3c33	-0.31100616
241	0x3da344a3	0.07972076
242	0x3d917d0a	0.071039274
243	0xbdace694	-0.08442417
244	0xbe14492a	-0.14481035
245	0x3e185495	0.14876015
246	0xbe3e2663	-0.18569331
247	0x3dcb7f08	0.09936339
248	0xbe467a26	-0.19382533
249	0xbe1aafd3	-0.15106134
250	0xbd5e73d3	-0.054309677
251	0x3e55370f	0.20821784
252	0x3e6553c4	0.22395235
253	0x3d5565ab	0.05209891
254	0x3da3e6ae	0.08002983
255	0xbe42318a	-0.1896421

sequential/dense_2/MatMul f4 [32, 32]
0	0xbeac8124	-0.33692276
1	0xbdbecddd	-0.09316609
2	0xbe549ee6	-0.2076374
3	0x3e9e5a2d	0.30928174
4	0x3e8320f2	0.25611073
5	0x3dd3dd29	0.10344917
6	0x3eabf8b0	0.3358817
7	0xbe06bd9d	-0.13158269
8	0xbd32ca14	-0.043649748
9	0x3e8671c8	0.26258683
10	0x3e75461d	0.23952527
11	0x3e194b4a	0.14970127
12	0xbe382595	-0.17983086
13	0xbdb55e32	-0.08855857
14	0xbed43fa2	-0.41454798
15	0xbd6534bd	-0.0559585
16	0xbe4f243e	-0.20228669
17	0x3e5fcef1	0.21856286
18	0xbe558d2d	-0.20854636
19	0xbe9fc505	-0.31205
20	0xbd0611de	-0.032731883
21	0xbe8bb3b1	-0.2728553
22	0x3de740c6	0.112916514
23	0x3e09a659	0.13442363
24	0x3e247c3a	0.16063014
25	0xbe8f7ecd	-0.2802643
26	0xbdea19ad	-0.114306785
27	0xbb9adaea	-0.0047258036
28	0x3e6efbb4	0.23338205
29	0xbd549a00	-0.05190468
30	0xbeb40def	-0.3516688
31	0xbd34cd32	-0.044141002
32	0x3c99cb40	0.018773675
33	0xbe8e4d1b	-0.27793202
34	0x3e2cb47f	0.16865729
35	0x3cc89014	0.024482764
36	0x3e5b3a95	0.21409066
37	0x3e72afcf	0.23699878
38	0x3e759e44	0.23986155
39	0xbdcdf2ef	-0.100561015
40	0xbe7bfe4d	-0.24608727
41	0x3dd9df92	0.10638346
42	0x3df3f1d1	0.11911357
43	0xbe86ff5b	-0.26366696
44	0xbcb52ae0	-0.022115171
45	0xbe643451	-0.22285582
46	0x3ddd9fa6	0.10821466
47	0x3e281881	0.16415597
48	0xbc166716	-0.009179851
49	0xbe6d7fc4	-0.2319327
50	0x3e3ca1db	0.18421118
51	0x3e91d926	0.28485984
52	0x3daffdcc	0.0859333
53	0xbc88b67a	-0.016688574
54	0xbe53a4cb	-0.20668332
55	0x3e016bdf	0.12638806
56	0x3e600798	0.21877897
57	0xbcedf36d	-0.029046739
58	0xbdfd75af	-0.12375962
59	0xbcc06b64	-0.023488708
60	0x3dbdf15c	0.09274551
61	0x3e8bb538	0.27286696
62	0xbe874bfd	-0.26425162
63	0x3e1b6b0d	0.15177555
64	0xbd5cc652	-0.05390007
65	0xbe60936b	-0.21931235
66	0x3deee462	0.11664654
67	0x3cf8a4ef	0.030352084
68	0x3e3ce670	0.1844728
69	0x3d174ddf	0.036939498
70	0xbdbbdad8	-0.091726005
71	0x3e22ef99	0.15911712
72	0x3e777802	0.24166873
73	0x3d867a0e	0.06566249
74	0xbd56b1f1	-0.052415792
75	0xbe82ca41	-0.25544932
76	0xbdf23907	-0.11827283
77	0xbe6f109e	-0.23346183
78	0xbe0d3ece	-0.1379349
79	0xbe46aba9	-0.1940142
80	0x3c978aa4	0.018498726
81	0x3e0a0dfe	0.134819
82	0x3d92ca80	0.0716753
83	0xbe85fead	-0.26170865
84	0xbea69dc8	-0.32542253
85	0xbe8b6fe7	-0.27233812
86	0xbda2efac	-0.0795587
87	0x3e0b74e2	0.13618806
88	0xbd94876c	-0.07252392
89	0xbd9da30a	-0.07697113
90	0xbdcaa978	-0.09895605
91	0x3da6f2c9	0.08151776
92	0xbe3a302e	-0.18182442
93	0x3dac5e19	0.08416385
94	0xbec1733f	-0.37783238
95	0xbea73471	-0.32657197
96	0x3d010bbb	0.031505328
97	0x3e698af2	0.2280691
98	0x3e5fd36c	0.21857995
99	0xbe7fc047	-0.24975692
100	0x3e2d8848	0.16946518
101	0xbdbb798e	-0.09154044
102	0xbde14cac	-0.11000952
103	0x3e66a020	0.2252202
104	0x3c5f9dac	0.013648432
105	0xbd06b77d	-0.03288983
106	0xbdddbff4	-0.10827628
107	0xbe028067	-0.12744294
108	0x3e8359a4	0.25654328
109	0xbe3f0704	-0.1865502
110	0xbe112f62	-0.14178231
111	0xbe7d9fa0	-0.24767923
112	0xbd88542b	-0.06656679
113	0x3bad9047	0.00529674
114	0x3e588350	0.21143842
115	0xbe17c0d9	-0.1481966
116	0xbe000919	-0.1250347
117	0x3dbee0fc	0.09320256
118	0x3e07351d	0.13203855
119	0xbd5afdfe	-0.053464882
120	0xbdd01afa	-0.10161395
121	0x3db48324	0.088140756
122	0xbd172691	-0.036902014
123	0x3e69d827	0.22836362
124	0x3dc576bb	0.09641787
125	0xbc4f7538	-0.0126622245
126	0x3e11c486	0.14235124
127	0x3e4c48ad	0.19949599
128	0xbdacffbc	-0.08447215
129	0xbd8586dc	-0.06519863
130	0xbdd6afee	-0.10482775
131	0x3ce8c510	0.02841428
132	0x3e9748f3	0.29547843
133	0x3d82eb38	0.06392521
134	0xbe32a443	-0.17445473
135	0xbe829e88	-0.25511575
136	0xbe85a026	-0.26098746
137	0x3d9b8498	0.075936496
138	0xbdd36ea6	-0.10323839
139	0xbe294af0	-0.16532493
140	0x3ded7380	0.115942955
141	0x3e27819c	0.16358036
142	0xbd8a9196	-0.067660496
143	0x3d953680	0.07285786
144	0xbdfa8940	-0.122332096
145	0xbe80a320	-0.25124454
146	0x3dd07f6c	0.10180554
147	0xbd3173b0	-0.04332322
148	0xbd1afc60	-0.03783834
149	0xbcc8d7e0	-0.024517
150	0x3e2a8c70	0.16655135
151	0xbe66a5df	-0.22524212
152	0xbe972c33	-0.2952591
153	0xbe6766e2	-0.2259784
154	0xbe4c3aad	-0.19944258
155	0x3e6adf96	0.22936854
156	0xbe4c0e9b	-0.19927447
157	0x3e4e8f5a	0.20171872
158	0xbdf8c830	-0.12147558
159	0x3db56b98	0.088584125
160	0xbdfc14eb	-0.12308677
161	0xbe8b6f56	-0.2723338
162	0xbdb5c694	-0.088757664
163	0x3dce51ea	0.100742176
164	0x3e2f4737	0.1711701
165	0xbd59d693	-0.05318315
166	0x3d567f32	0.052367397
167	0x3e3c3a79	0.1838168
168	0xbe9e1a4d	-0.3087944
169	0xbe0f6fee	-0.14007542
170	0x3d9d095c	0.07667801
171	0x3e7a0c68	0.24418795
172	0x3e142628	0.1446768
173	0xbe8be8c8	-0.27326035
174	0x3dc953ee	0.098304614
175	0x3e0df187	0.13861667
176	0x3d5063a9	0.050876293
177	0x3e73a476	0.23793206
178	0x3e4e31d4	0.20136195
179	0x3e676b72	0.22599581
180	0xbe5382c4	-0.20655352
181	0xbe346b49	-0.17619051
182	0x3e65556e	0.2239587
183	0xbe11e777	-0.14248453
184	0xbe45d818	-0.19320714
185	0xbd897c1c	-0.06713125
186	0xbe3b2893	-0.18277197
187	0xbce6e9bd	-0.028187627
188	0x3da5ff1e	0.081053
189	0xbec4298a	-0.38312942
190	0xbe859f4c	-0.26098096
191	0xbd440896	-0.04785975
192	0x3d866d10	0.06563771
193	0xbe9b5bfc	-0.30343616
194	0xbdb7e43b	-0.089790784
195	0x3da93441	0.0826192
196	0xbdce9e22	-0.10088755
197	0xbd109b39	-0.03530428
198	0xbdf668f7	-0.12031739
199	0x3e532d06	0.20622644
200	0xbdb6fa04	-0.089344054
201	0x3dfe3a48	0.1241346
202	0xbea0abe9	-0.31381157
203	0x3e6f2848	0.2335521
204	0xbdec046c	-0.11524281
205	0x3e2102cc	0.15723723
206	0xbe83366b	-0.25627455
207	0xbdda9327	-0.10672598
208	0x3c3ec387	0.011643297
209	0xbe9137c5	-0.2836286
210	0x3e16a2d9	0.14710559
211	0x3e01ea67	0.12687074
212	0xbe17d162	-0.14825967
213	0xbe27bffa	-0.16381827
214	0x3e78ff99	0.24316253
215	0xbea4c70d	-0.32183114
216	0xbe264280	-0.16236305
217	0x3e476b9b	0.19474642
218	0xbe622133	-0.22082977
219	0x3e06dc7f	0.1317005
220	0x3ea43afe	0.32076257
221	0x3e506404	0.20350653
222	0x3e496be7	0.19670068
223	0xbe60395b	-0.2189688
224	0xbd58ee93	-0.052961897
225	0x3dbc1ef0	0.09185588
226	0x3d5122a9	0.051058445
227	0x3d9eea3b	0.0775952
228	0x3e5dae70	0.21648574
229	0xbe98fc7d	-0.29880133
230	0x3df01bf1	0.117240794
231	0xbe15e956	-0.14639792
232	0xbe075555	-0.13216145
233	0x3e7c5c55	0.24644597
234	0x3e90b0f5	0.28260008
235	0xbead51bf	-0.3385143
236	0x3ea7ed8e	0.32798427
237	0xbda1bc8a	-0.07897289
238	0xbc08f1ee	-0.008358462
239	0xbdb4b84a	-0.08824213
240	0x3dc9a4ab	0.09845861
241	0x3e1564fa	0.14589301
242	0x3e912731	0.28350213
243	0xbda04240	-0.07825136
244	0x3d906fd0	0.070525765
245	0xbd1323cd	-0.035922814
246	0xbddeade9	-0.108730145
247	0x3e4d82bd	0.20069404
248	0xbdc438ee	-0.09581171
249	0x3e61068b	0.21975152
250	0xbdb92bc6	-0.09041552
251	0x3cc7890d	0.024357343
252	0xbe7c072e	-0.24612114
253	0xbe4366fa	-0.19082251
254	0xbe7f2f2b	-0.24920337
255	0x3de75c15	0.1129686

sequential/dense_3/MatMul f4 [4, 32]
0	0xbecd87ac	-0.40142572
1	0xbe0f65d4	-0.14003688
2	0xbe2c068d	-0.16799374
3	0x3e96c419	0.29446486
4	0xbe0cdb8e	-0.13755628
5	0x3e8ea203	0.2785798
6	0xbd307ef7	-0.043089833
7	0x3d03e1b8	0.032197684
8	0x3b1764b6	0.00231008
9	0x3da4b554	0.08042398
10	0x3e88d5d3	0.26725635
11	0xbe259ebd	-0.16173835
12	0xbe392835	-0.18081744
13	0xbea3217b	-0.3186148
14	0xbca4de34	-0.020125486
15	0x3ea0ac7c	0.31381595
16	0xbdccdd10	-0.10003102
17	0xbd922948	-0.0713678
18	0x3db8b4ce	0.09018861
19	0xbe446d9c	-0.19182438
20	0xbd81f4b4	-0.063455015
21	0x3e56ffa8	0.20995963
22	0xbe9d86b5	-0.30766836
23	0xbeaa963a	-0.3331774
24	0xbded6dcc	-0.11593208
25	0xbe661192	-0.2246764
26	0xbdac785d	-0.08421395
27	0x3d53a5b5	0.051671702
28	0x3e7618ed	0.24032946
29	0x3e05a6eb	0.13051955
30	0xbeb2cce0	-0.34921932
31	0xbe9727cb	-0.29522547
32	0xbe91ff40	-0.28515053
33	0xbe0375d3	-0.12837915
34	0xbea557a8	-0.3229344
35	0x3c85c530	0.016329378
36	0xbe3fad75	-0.18718512
37	0xbe73d15e	-0.23810336
38	0xbe2ecd06	-0.17070398
39	0xbe9a577d	-0.30144873
40	0x3c0afe34	0.008483458
41	0x3ea22a83	0.3167306
42	0xbe65ca0d	-0.22440358
43	0xbdfcb095	-0.12338368
44	0xbea3851c	-0.31937492
45	0xbea76d05	-0.32700363
46	0x3c3b191f	0.011419564
47	0xbd6d3e7b	-0.057920914
48	0xbe05a7aa	-0.1305224
49	0xbdf647e7	-0.12025433
50	0x3d9d46b8	0.07679504
51	0xbb224f73	-0.0024766594
52	0x3d03a750	0.032141984
53	0x3de4b20f	0.111667745
54	0xbeacfabc	-0.33785045
55	0xbdce8617	-0.10084169
56	0x3e127821	0.14303638
57	0xbe68fd89	-0.22752966
58	0xbe10f45d	-0.14155717
59	0x3e63c6e4	0.2224384
60	0x3e3c8416	0.18409762
61	0x3c183147	0.009289092
62	0xbe30326e	-0.17206737
63	0xbd994427	-0.07483702
64	0xbe23eebd	-0.1600904
65	0xbe85f155	-0.26160684
66	0xbdd9bd85	-0.10631851
67	0xbe84b4e9	-0.25919273
68	0xbcecf4a0	-0.02892524
69	0xbe35aea4	-0.17742401
70	0xbe8d8d35	-0.27646795
71	0x3e5decbd	0.2167234
72	0xbe65c9af	-0.22440217
73	0xbe32372a	-0.17403856
74	0x3e020cef	0.12700246
75	0x3e61b167	0.2204033
76	0x3e4ed7ae	0.20199463
77	0x3e9d3cbc	0.307104
78	0x3de89519	0.11356563
79	0xbe6e93c7	-0.2329856
80	0xbe63b62b	-0.2223746
81	0xbe665b72	-0.22495821
82	0x3e072d8d	0.1320097
83	0xbe510021	-0.20410205
84	0x3e9b91de	0.30384725
85	0x3d457512	0.04820735
86	0x3e4bb8af	0.1989467
87	0x3e5df6a4	0.21676117
88	0x3e227d63	0.15868144
89	0x3e931879	0.2872961
90	0x3d2e076c	0.042487547
91	0xbe584e27	-0.21123563
92	0x3db89439	0.09012646
93	0xbe939af8	-0.2882917
94	0x3e89b699	0.26897123
95	0xbe143591	-0.14473559
96	0x3d487429	0.048938904
97	0xbb95fc0d	-0.004577166
98	0x3e081db2	0.13292578
99	0xbe944928	-0.28962064
100	0x3e2a4050	0.16626096
101	0xbec2c209	-0.38038662
102	0xbd4ecaa3	-0.05048622
103	0xbe3b34b3	-0.18281822
104	0x3d85b917	0.06529444
105	0x3eaf27d0	0.34210062
106	0x3e07a17d	0.13245197
107	0xbe96c75f	-0.29448983
108	0x3ea1b5cb	0.3158401
109	0xbea24a93	-0.3169752
110	0xbd376d65	-0.04478206
111	0x3d2f3d50	0.04278308
112	0xbe9f1a88	-0.3107493
113	0x3c259d49	0.0101083005
114	0x3e6fcb2a	0.23417345
115	0x3de2c546	0.11072783
116	0xbd6a88de	-0.057259433
117	0xbe556e21	-0.20842792
118	0xbe69fdd5	-0.22850735
119	0xbda7cf7d	-0.08193872
120	0xbcdca922	-0.026936118
121	0xbdbbb326	-0.09165029
122	0x3e8b96ad	0.27263394
123	0xbd6826c7	-0.056677606
124	0x3e8e31d6	0.27772397
125	0x3eaf80d3	0.34277973
126	0xbe532c11	-0.20622279
127	0xbe1ab1b7	-0.15106855

sequential/lstm/while/lstm_cell/MatMul_7 f4 [64, 64]
0	0x3d20b37e	0.039233677
1	0xbba09036	-0.004900004
2	0x3e021775	0.1270426
3	0xbd1d5893	-0.03841455
4	0x3df59c11	0.11992658
5	0x3cd04d44	0.025427468
6	0x3d61f9bb	0.055169802
7	0xbb849616	-0.004046212
8	0xbcfd38b9	-0.030910837
9	0xbcdcea9f	-0.026967345
10	0xbe446bb0	-0.19181705
11	0xbd12f27a	-0.035875775
12	0xbe13ee76	-0.14446434
13	0x3d3abb62	0.04558886
14	0xbd72648a	-0.059177913
15	0x3d59c8f2	0.053170152
16	0xbd4baa5d	-0.049723018
17	0x3d313e20	0.043272138
18	0xbd9daf83	-0.07699492
19	0x3de8c36f	0.11365401
20	0x3da659a4	0.08122566
21	0x3d627aad	0.055292774
22	0xbce11716	-0.027476829
23	0x3df5a4a4	0.11994293
24	0x3d6d7fff	0.057983395
25	0xbd60ddee	-0.05489915
26	0x3c10c854	0.008836824
27	0xbda8cfd2	-0.082427636
28	0xbd9d9be3	-0.07695749
29	0x3df2a4b1	0.11847819
30	0x3d8ea639	0.06965298
31	0x3cd21e0e	0.025649097
32	0x3db1598c	0.08659658
33	0x3ccf9a11	0.02534202
34	0xbd066413	-0.032810282
35	0x3dc4277d	0.09577844
36	0xbd16fdb2	-0.036863036
37	0xba36d346	-0.0006974231
38	0xbde4cdd7	-0.11172073
39	0x3d885fcf	0.06658899
40	0xbd13ebeb	-0.03611366
41	0xbdd9b915	-0.10631005
42	0xbd55ca45	-0.052194852
43	0x3d82caa9	0.063863106
44	0xbd7757cd	-0.060386468
45	0xbe04650b	-0.1292917
46	0xbdff0419	-0.124519534
47	0x3debeb39	0.115194745
48	0xbd39305a	-0.045212127
49	0x3e07e705	0.1327172
50	0xbdedb7b8	-0.11607307
51	0xbdb24047	-0.08703666
52	0xbdb766df	-0.08955168
53	0xbc59b6a2	-0.013288172
54	0x3d6e0634	0.058111385
55	0x3d8499b5	0.0647463
56	0xb9fc374e	-0.0004810639
57	0x3da498ef	0.08036982
58	0x3c26f1d5	0.010189493
59	0x3da7c0ce	0.081910715
60	0xbd576114	-0.052582815
61	0x3df9f87a	0.12205596
62	0x3d7e287b	0.062050324
63	0xbcf2c274	-0.029633738
64	0xbc16c63e	-0.009202538
65	0x3cf296db	0.02961295
66	0xbd89300d	-0.06698618
67	0x3bd5b485	0.0065217637
68	0xbc4ac65a	-0.012376392
69	0xbd377940	-0.044793367
70	0xbd502934	-0.050820544
71	0xbda3c35e	-0.07996248
72	0x3af88866	0.0018961548
73	0xbd35f20c	-0.044420287
74	0xbca912c2	-0.020638827
75	0xbc76a0eb	-0.015053014
76	0x3c97f1ee	0.018547978
77	0x3a922b57	0.0011151832
78	0xbcecb1d1	-0.028893383
79	0xbc87c047	-0.016571177
80	0xbd5b9507	-0.05360892
81	0x3bcbfa0f	0.0062248777
82	0x3cd7186c	0.026256762
83	0xbd940caf	-0.07228982
84	0xbd831a7f	-0.06401538
85	0xbcd93fc1	-0.026519658
86	0xbdb99770	-0.090620875
87	0xbcce47d8	-0.025180742
88	0xbb83f4e7	-0.0040269974
89	0x3d1ba411	0.037998263
90	0xbd0f6146	-0.035004877
91	0x3c17d1da	0.009266341
92	0x3cedfcb6	0.029051166
93	0x3c9edb4c	0.019391678
94	0xbdeefea5	-0.11669663
95	0xbd45d639	-0.0483
96	0xbd379609	-0.04482082
97	0xbbe814c3	-0.007082553
98	0xbc00fdd6	-0.007873019
99	0xbd0e9005	-0.034805316
100	0xbc78294c	-0.015146565
101	0x3da33420	0.079689264
102	0x3a1c514b	0.00059630413
103	0xbe231738	-0.15926826
104	0xbd9285d9	-0.07154436
105	0xbdeab141	-0.1145959
106	0xbc8348c8	-0.016025916
107	0x3db31c2a	0.08745606
108	0xbaeb50ae	-0.0017953122
109	0x3df0ffa1	0.11767507
110	0xbde82e5e	-0.11336969
111	0x3c69cbab	0.01426975
112	0xbc29ab43	-0.010355773
113	0xbcefad26	-0.029257368
114	0xbd7a6442	-0.06113077
115	0xbb14f015	-0.0022726108
116	0xba98f37b	-0.0011669243
117	0x3cdace5b	0.026709726
118	0x3d6f46e3	0.058417212
119	0x3df76081	0.120789535
120	0x3c95e028	0.018295363
121	0xbcf95471	-0.030435773
122	0xbcdc2691	-0.026873859
123	0xbddec61b	-0.10877629
124	0xbd3a49a3	-0.04548038
125	0xbdb07295	-0.08615605
126	0xbcfe94c4	-0.031076796
127	0xbe0edeb0	-0.13952136
128	0xbd8ae5c5	-0.06782106
129	0x3dabb06f	0.083832614
130	0x3d6fe719	0.05857
131	0x3dac0e8d	0.08401213
132	0xbd79b45a	-0.060963012
133	0xbce4728d	-0.027886653
134	0xbd424eec	-0.047438547
135	0x3e2ae10d	0.16687413
136	0x3dc5e904	0.09663585
137	0x3d992813	0.07478347
138	0xbce4f338	-0.027948007
139	0xbcb2bc43	-0.021818286
140	0xbc6de963	-0.014520976
141	0x3e1005c9	0.14064707
142	0xbceb324b	-0.028710505
143	0x3d47caf9	0.048777554
144	0x3d000d0b	0.03126244
145	0xbd07a567	-0.033116724
146	0xbd94efda	-0.072723106
147	0x3ba34492	0.0049825395
148	0x3c9bfb7d	0.019040817
149	0xbc20b979	-0.009809845
150	0xbd1cd9e8	-0.03829375
151	0xbc0099ec	-0.007849198
152	0x3c74c62e	0.014939828
153	0xbc12337c	-0.008923408
154	0x3d9bb835	0.07603494
155	0xbccc6bb2	-0.024953697
156	0x3e0f9daf	0.14024995
157	0xbd81c9da	-0.06337328
158	0x3ce543c1	0.02798641
159	0xbdbba160	-0.09161639
160	0xbc1c31eb	-0.009533386
161	0xbd95c68f	-0.07313263
162	0x3d851c89	0.06499583
163	0x3dcaf0c6	0.09909205
164	0x3d8cf9f7	0.068836145
165	0x3d50ed39	0.051007483
166	0xbd808b5e	-0.06276582
167	0x3c820097	0.015869422
168	0x3c9b9ae7	0.018994762
169	0x3cdf3368	0.027246192
170	0xbd7a447c	-0.061100468
171	0x3d0f0dbd	0.03492521
172	0xbe0e53de	-0.1389918
173	0x3dbd1ff1	0.09234608
174	0xbd9d670a	-0.07685669
175	0xbd303589	-0.043019805
176	0x3e006c88	0.12541401
177	0xbd6f1322	-0.058367856
178	0xbd1ffa32	-0.039056964
179	0xbc3c1b56	-0.011481127
180	0xbd958c9a	-0.07302208
181	0xbc6e247b	-0.014535065
182	0xbda41bd7	-0.080131225
183	0x3cdbef77	0.026847584
184	0x3c0f0ee1	0.008731575
185	0x3e161856	0.14657721
186	0x3cf03c28	0.02932556
187	0x3c86a7c8	0.016437426
188	0x3dedf3aa	0.11618741
189	0x3cff7e64	0.031188197
190	0xbd887efa	-0.06664844
191	0x3d686f0d	0.05674653
192	0x3dc8de40	0.09808016
193	0x3d4c82e0	0.0499295
194	0x3d6603f5	0.056156117
195	0xbc335f86	-0.0109480675
196	0x3c531f61	0.012885899
197	0xbcb5fd1d	-0.02221542
198	0x3d0fc3fa	0.035099007
199	0x3c940bec	0.018072091
200	0x3e0cd72b	0.13753955
201	0x3cfc8f59	0.030830072
202	0xbd9c05ec	-0.07618317
203	0x3e1017d8	0.14071596
204	0xbdf29597	-0.11844938
205	0xb98dd462	-0.00027051853
206	0xbdaae31a	-0.083440974
207	0x3cef961f	0.029246388
208	0x3c740451	0.014893607
209	0xbd265a64	-0.040613547
210	0x3d4c7651	0.049917523
211	0xbdb7096c	-0.08937344
212	0x3d32473b	0.043524962
213	0x3d4e840f	0.05041891
214	0xbcf50969	-0.029911714
215	0x3c1df602	0.009641172
216	0x3d955cae	0.07293068
217	0x3d13a504	0.036046043
218	0x3c311ef0	0.010810599
219	0x3d910e00	0.070827484
220	0x3d0adf07	0.0339041
221	0x3b0c1857	0.0021376812
222	0xbb9f07e0	-0.0048532337
223	0x3d82e408	0.0639115
224	0x3df088b9	0.11744828
225	0xbc910894	-0.017704286
226	0xbd8ccd6b	-0.06875118
227	0xbd026a7d	-0.031839836
228	0x3d7192c8	0.058977872
229	0xbdb78260	-0.08960414
230	0x3c1170af	0.0088769635
231	0xbdb128fb	-0.086503945
232	0x3d00cf6a	0.031447805
233	0xbdd4fd3e	-0.103998646
234	0xbb784349	-0.0037881902
235	0x3d2fe864	0.042946234
236	0x3c24c7fc	0.010057446
237	0x3c4b198b	0.012396227
238	0x3dcfb718	0.10142344
239	0x3bc555cf	0.006022192
240	0xbd437fde	-0.047729366
241	0xbdc9bfab	-0.09851011
242	0xbd9ee0fb	-0.07757755
243	0xbd901bd7	-0.0703656
244	0x3b72906d	0.0037012354
245	0x3d884618	0.06653994
246	0xbbac69f4	-0.005261654
247	0xbcf2be4a	-0.029631753
248	0xbd9599b2	-0.07304706
249	0x3c97fb12	0.018552337
250	0xbd649d12	-0.055813856
251	0x3bf2ed51	0.007413544
252	0xbdf09102	-0.11746408
253	0xbc6d282a	-0.014474908
254	0x3cf41a2a	0.029797632
255	0xbddb1112	-0.10696615

sequential/lstm/while/lstm_cell/MatMul_6 f4 [64, 64]
0	0xbcec5383	-0.028848415
1	0x3bbb3ca9	0.0057140184
2	0xbdada5c0	-0.0847888
3	0x3cae8e49	0.021308081
4	0xbc0732b6	-0.0082518365
5	0xbd8c2f26	-0.0684493
6	0x3d9eb7bd	0.07749889
7	0xbdf2d214	-0.118564755
8	0xbde3e8dd	-0.111283995
9	0x3db9a525	0.09064702
10	0x3d6a4962	0.05719889
11	0xbd2434e1	-0.04008949
12	0xbc245f62	-0.010032507
13	0x3cdcdb74	0.026960112
14	0xbd244d55	-0.040112812
15	0x3b8f5d4d	0.004375136
16	0x3d09c0ac	0.03363101
17	0xbd8e11bf	-0.069369785
18	0x3de95810	0.1139375
19	0xbc093923	-0.008375439
20	0x3d7e8f2c	0.062148258
21	0x3ca1e879	0.019764172
22	0x3d5a46dc	0.053290233
23	0x3d5d4b27	0.05402675
24	0x3d646a71	0.055765573
25	0x3b456344	0.0030118981
26	0xb87dd92a	-6.052215e-05
27	0xbd81f2a8	-0.06345111
28	0x3bfb3540	0.00766626
29	0x3d515e6f	0.05111545
30	0xbd924c30	-0.07143438
31	0xbd40cb4f	-0.04706889
32	0xbd97a5fe	-0.07404707
33	0xbdc67c8c	-0.09691724
34	0xbd995a58	-0.07487935
35	0x3d2e28b9	0.042519305
36	0x3ca4112f	0.020027725
37	0xbdfd9e63	-0.123837255
38	0x3d59c138	0.053162783
39	0xbd13fafb	-0.036128026
40	0xbcd0608c	-0.025436662
41	0x3e0681fa	0.1313552
42	0x3d865c6c	0.06560597
43	0x3dc36a31	0.09541739
44	0xbd4a8306	-0.04944136
45	0xbd6533a6	-0.05595746
46	0xbce670b9	-0.028129922
47	0x3c3ab895	0.011396547
48	0xbd444030	-0.047912776
49	0x3ddc78ed	0.10765252
50	0xbcbf23df	-0.023332534
51	0xbd7ae118	-0.061249822
52	0xbd5e701d	-0.05430614
53	0xbda4b6ce	-0.0804268
54	0xbd8b289d	-0.06794856
55	0x3d96b3f5	0.07358543
56	0x3d8e7014	0.06954971
57	0xbbc9236d	-0.0061382563
58	0xbb91fb8c	-0.0044550356
59	0x3da3861e	0.07984565
60	0x3b3136a1	0.0027040618
61	0x3dec31ba	0.11532922
62	0xbda9940d	-0.082801916
63	0xbcec782d	-0.028865898
64	0xbd80b7e4	-0.06285074
65	0x3d5c918f	0.053849753
66	0xbd69f4a6	-0.05711808
67	0xbc2a3b62	-0.0103901345
68	0x3e00cf88	0.12579167
69	0xbdaa3beb	-0.0831221
70	0xbd87ba65	-0.06627349
71	0xbc99d8e3	-0.018780177
72	0x3d389a0d	0.04506879
73	0xbc2426dc	-0.01001903
74	0x3d556eb0	0.052107513
75	0xbd04c660	-0.032415748
76	0xbde43b50	-0.111441255
77	0xbc8eb0b8	-0.01741825
78	0xbc8c7448	-0.017145291
79	0x3ca2fd41	0.019896151
80	0x3d41a419	0.047275636
81	0x3d2c9fc8	0.042144567
82	0x3da1ff97	0.07910078
83	0x3d177d75	0.03698488
84	0x3d4dd6e4	0.050253764
85	0xbe1f3ab1	-0.15549733
86	0x3d3c8efb	0.046034794
87	0xbaa1741a	-0.0012317926
88	0xbdea24e5	-0.11432818
89	0x3d06b54e	0.03288775
90	0x3c47170a	0.012151489
91	0x3d2b182d	0.041771103
92	0xbd71a502	-0.058995254
93	0x3d6ada49	0.05733708
94	0xbdba9140	-0.091097355
95	0x3df1bfc0	0.118041515
96	0xbd5df268	-0.054186255
97	0xbd6feb5a	-0.058574058
98	0xbdb819ae	-0.08989273
99	0x3bab5d1d	0.005229606
100	0xbc021c51	-0.0079413215
101	0xbd20b654	-0.03923638
102	0xbc087120	-0.008327752
103	0xbd24b84a	-0.040214814
104	0xbd45d967	-0.048303034
105	0xbb8e5b39	-0.0043443707
106	0x3db7bd97	0.08971708
107	0xbe05f9c6	-0.13083562
108	0xbc3f11f8	-0.011661999
109	0x3d4a98a0	0.04946196
110	0xbdbc9160	-0.092074156
111	0x3cab8592	0.020937715
112	0xbce51f09	-0.0279689
113	0xbc1cad82	-0.009562852
114	0x3df94b26	0.121725366
115	0xbcfd4160	-0.030914962
116	0xbc8213ec	-0.01587864
117	0x3dee76e5	0.11643771
118	0xbcd04e94	-0.025428094
119	0x3c963ba2	0.018338982
120	0x3d25e572	0.04050202
121	0xbd5a1511	-0.053242747
122	0x3cd1ee05	0.025626192
123	0x3d6daa9f	0.058024045
124	0x3d8f4145	0.06994871
125	0xbdf0d997	-0.11760252
126	0xbcd9cb6a	-0.026586253
127	0x3d709bbc	0.05874227
128	0xbcf9f3bf	-0.030511735
129	0x3daf37a9	0.08555538
130	0x3ccf80d2	0.025329981
131	0xbc76d454	-0.015065271
132	0xbc722eb5	-0.014781644
133	0x3da0a3cb	0.07843741
134	0x3d5dc80d	0.05414586
135	0x3dfe89fe	0.12428664
136	0x3da4b1cc	0.080417246
137	0xbdd3e141	-0.10345698
138	0xbde008f9	-0.109392114
139	0x3cb27664	0.021784969
140	0xbc866804	-0.01640702
141	0xbda9869c	-0.08277628
142	0x3c67320f	0.014111056
143	0x3d8870e7	0.066621594
144	0xbccff496	-0.025385182
145	0xbcda728c	-0.026665948
146	0xbd503096	-0.050827585
147	0x3cf9182a	0.03040703
148	0xbca4eb01	-0.02013159
149	0x3dc18e89	0.094510145
150	0x3e04a6f8	0.12954319
151	0x3d969e16	0.07354371
152	0xbdb05add	-0.08611081
153	0x3b76c03c	0.0037651202
154	0x3c762fe1	0.015026064
155	0x3da55ae1	0.080739744
156	0x3bb03957	0.005377929
157	0x3dae2e0f	0.08504879
158	0xbd9fe3f2	-0.07807149
159	0x3e0642da	0.1311144
160	0x3d5f67a9	0.054542217
161	0x3d965db8	0.07342094
162	0x3d8955aa	0.06705792
163	0xbd364444	-0.044498697
164	0x3db2f684	0.087384254
165	0xbd8c0227	-0.06836348
166	0xbd167b2f	-0.03673857
167	0x3c14cf28	0.009082593
168	0xbd49586e	-0.0491566
169	0x3dd03ca3	0.101678155
170	0xbe09ec02	-0.13468936
171	0x3afa63c8	0.0019103223
172	0xbd20de9d	-0.0392748
173	0xbd4ec4f3	-0.050480794
174	0x3dea4672	0.114392176
175	0x3d976df1	0.073940165
176	0x3b836eac	0.004010996
177	0xbe091f0e	-0.13390753
178	0xbc84dba4	-0.016218014
179	0x3c9babee	0.01900288
180	0xbc998bbd	-0.01874339
181	0xbd398e09	-0.04530147
182	0xbad815a9	-0.0016485947
183	0x3d6e032b	0.05810849
184	0xbc3d7096	-0.011562487
185	0x3d13c9f3	0.036081266
186	0xbc94ccde	-0.018164095
187	0x3d7e3e2c	0.06207101
188	0xbd70a61d	-0.058752168
189	0xbce1c6cd	-0.027560616
190	0x3da50084	0.08056739
191	0x3d215793	0.039390158
192	0x3dd6e0a4	0.104920655
193	0xbd376263	-0.044771563
194	0xbd5a0754	-0.053229645
195	0xbd18934c	-0.03724985
196	0x3cab3446	0.02089895
197	0x3d77f2d0	0.0605343
198	0xbd6334c6	-0.05547025
199	0x3d7052c7	0.058672693
200	0x3bd52673	0.0065048276
201	0xbd96604a	-0.073425844
202	0xbd59a569	-0.053136263
203	0x3cea70c5	0.028618226
204	0xbbd3d2d5	-0.006464342
205	0xbe204cdf	-0.15654324
206	0xbdaa3cff	-0.08312415
207	0xbc8a06fb	-0.016849032
208	0xbe113f4b	-0.141843
209	0xbc0eae68	-0.008708574
210	0x3dc010f8	0.093782365
211	0xbcb6fac3	-0.02233637
212	0xbcd0c220	-0.025483191
213	0xbd88a21e	-0.066715464
214	0xbbf56b40	-0.007489592
215	0xbbf1186d	-0.007357648
216	0x3d0e442b	0.03473298
217	0x3e0855e0	0.13314009
218	0xbb3cd53d	-0.0028813623
219	0xbdab9eab	-0.08379873
220	0xbb0067fa	-0.0019593225
221	0xbd3ebc8d	-0.046566535
222	0x3ca46965	0.020069787
223	0xbdc6b13f	-0.09701776
224	0xbd4dfc4c	-0.050289437
225	0xbe02e582	-0.12782863
226	0xbe0634b0	-0.13106036
227	0xbdaeeb74	-0.08541003
228	0xbd4c5d9b	-0.049893957
229	0xbc881e97	-0.016616149
230	0xbdd19be0	-0.10234809
231	0x3c49a57c	0.012307521
232	0xbe048868	-0.1294266
233	0xbd5006b2	-0.050787635
234	0xbe03bd37	-0.12865148
235	0x3d880d4c	0.06643161
236	0x3c97e4e1	0.018541755
237	0xbdee9029	-0.1164859
238	0x3cbd114f	0.023079542
239	0x3b50005e	0.00317385
240	0xbda6d5d4	-0.08146253
241	0x3bd7332d	0.00656738
242	0xbd540796	-0.051765047
243	0x3d0a5b59	0.033778522
244	0xbc63586b	-0.013876061
245	0x3c402770	0.011728153
246	0xbd674184	-0.056458965
247	0x3df77ee5	0.1208475
248	0x3c679a86	0.014135962
249	0x3d8337c9	0.064071245
250	0x3cf57ffb	0.029968252
251	0x3c912109	0.017715948
252	0xbd794871	-0.0608601
253	0xbd75e310	-0.060030997
254	0xbc5b2b46	-0.013377016
255	0x3dca49b5	0.0987734

sequential/lstm/while/lstm_cell/MatMul_5 f4 [64, 64]
0	0x3c4f333a	0.012646491
1	0x3c0074fa	0.007840389
2	0xbdc92f3d	-0.09823463
3	0xbc87055f	-0.016482053
4	0xbd5514cb	-0.052021783
5	0xbd5e2573	-0.054234933
6	0xbc9b9610	-0.018992454
7	0xbdc2eddc	-0.09518024
8	0xbe019c22	-0.12657216
9	0x3c78be93	0.015182155
10	0x3ddbf77d	0.10740564
11	0xbd1f212d	-0.03885
12	0xbdd66580	-0.10468578
13	0x3ca766ef	0.020434825
14	0x3a2ea5f4	0.0006662302
15	0xbd6b7b40	-0.057490587
16	0x3bbf9001	0.005846024
17	0xbd61df9d	-0.055144895
18	0xbc6bed78	-0.014399879
19	0x3d048c9a	0.03236065
20	0xbc35cdd4	-0.0110964365
21	0xbe24af38	-0.16082466
22	0xbde7f37e	-0.11325739
23	0x3d81dde4	0.063411504
24	0x3c50c658	0.012742601
25	0xbd058d87	-0.032605674
26	0x3dace867	0.08442765
27	0xbd82b7fa	-0.06382747
28	0xbcec2916	-0.028828185
29	0x3d8955af	0.06705796
30	0x3c580e1f	0.0131869605
31	0xbdbbad62	-0.091639295
32	0xbcfb6b6d	-0.030690873
33	0xbcdb22f7	-0.026750071
34	0x3dcbc81c	0.09950277
35	0xbd972278	-0.07379621
36	0xbd9b9dac	-0.07598433
37	0xbde43b5b	-0.11144134
38	0x3d0d5ebf	0.034514185
39	0xbdd8409e	-0.105592
40	0xbdb52370	-0.0884465
41	0x3d7115c4	0.058858648
42	0x3d13b190	0.03605801
43	0xbd290185	-0.041261215
44	0xbdac8255	-0.08423296
45	0x3bfbaea3	0.0076807304
46	0x3d12d852	0.03585083
47	0xbd9b591d	-0.075853564
48	0xbdc6e87d	-0.09712312
49	0xbd1fe4fe	-0.039036743
50	0xbc052888	-0.008127339
51	0x3c4bbdd0	0.012435392
52	0x3d38ce71	0.045118753
53	0xbe2007e8	-0.15628016
54	0x3d383338	0.04497072
55	0xbdc7dd4a	-0.097590044
56	0xbd047c91	-0.03234536
57	0xbccc69f6	-0.02495287
58	0x3d2def3a	0.042464472
59	0x3d995a29	0.074879
60	0x3dc3a083	0.095520996
61	0x3d68d6d7	0.056845512
62	0xbd40cbdf	-0.047069427
63	0x3cb88cb1	0.022528024
64	0xbcc71fd2	-0.024307165
65	0x3d9110c1	0.07083274
66	0xbd68f824	-0.05687727
67	0xbd82553b	-0.06363913
68	0xbc1933c4	-0.009350721
69	0xbcefbd93	-0.0292652
70	0x3d667a40	0.05626893
71	0xbdd351c1	-0.10318328
72	0xbdb54ac6	-0.088521525
73	0xbc15dd49	-0.009146997
74	0xbd753989	-0.059869323
75	0x3d9328ce	0.07185517
76	0xbd503649	-0.05083302
77	0x3d26dca6	0.04073777
78	0xbda75b92	-0.081717625
79	0xbd06b86d	-0.032890726
80	0x3e008a36	0.12552723
81	0xbdd06a4f	-0.10176527
82	0x3c2c4f4d	0.010516954
83	0x3d85a3be	0.06525372
84	0xbd95bca7	-0.07311373
85	0x3cdc354d	0.026880885
86	0x3bb1c944	0.005425604
87	0xbde56a41	-0.11201907
88	0xbe5c5720	-0.2151761
89	0xbdab2c1d	-0.08358023
90	0xbe44c0c7	-0.19214164
91	0xbceba5e7	-0.028765632
92	0xbbf5d1ca	-0.0075018154
93	0x3cca4b68	0.02469416
94	0xb9a8b30d	-0.0003217686
95	0xbd966a27	-0.07344466
96	0x3cc51f5e	0.024062809
97	0x3b25432f	0.0025217046
98	0xbdf33bb3	-0.11876621
99	0xbd081776	-0.0332255
100	0xbdc013c1	-0.09378768
101	0x3d6f9bb5	0.058498103
102	0x3d8eb188	0.06967455
103	0x3d0fe247	0.035127904
104	0x3d8ab706	0.0677319
105	0xbdd1045b	-0.10205909
106	0x3db42dc6	0.08797793
107	0xbd30e26c	-0.043184683
108	0x3b6737d5	0.0035281081
109	0xbc923e20	-0.01785189
110	0x3e00d140	0.12579823
111	0xbb993ec8	-0.0046766736
112	0x3d40f098	0.047104448
113	0xbdad44e5	-0.08460406
114	0xbd5870f4	-0.052842095
115	0xbdb8810a	-0.09008987
116	0xbcbe18f5	-0.02320526
117	0xbd8c2930	-0.068437934
118	0xbca52057	-0.020157022
119	0x3d940bdc	0.072288245
120	0x3acf8f32	0.0015835522
121	0x39b07a73	0.00033660568
122	0x3d44d99e	0.0480591
123	0xbcd1c298	-0.025605485
124	0x3e0f6e01	0.14006807
125	0x3d7ccb39	0.061717246
126	0xbc8d87eb	-0.017276725
127	0xbca6fd3e	-0.020384427
128	0x3bf4d1d8	0.0074713044
129	0x3c656d8c	0.014003169
130	0xbd2013b9	-0.03908131
131	0x3d28ed42	0.04124189
132	0x3dc67ea9	0.09692127
133	0xbc9abeba	-0.018889774
134	0x3dd47f70	0.10375869
135	0x3d7ad9c7	0.061242845
136	0xbd6acdcb	-0.057325166
137	0x3c9a080f	0.01880267
138	0xbcd44dd2	-0.025916014
139	0x3e08406f	0.1330583
140	0xbd85f5e3	-0.0654104
141	0xb906a9de	-0.00012842516
142	0x3bab7252	0.005232134
143	0x3dd97c9d	0.10619471
144	0xbda109fb	-0.07863232
145	0x3e185259	0.14875163
146	0xba991ce6	-0.0011681586
147	0xbc2ae916	-0.010431549
148	0xbcf4ab6d	-0.029866898
149	0xbc42ce78	-0.011890046
150	0xbd1bc17b	-0.038026314
151	0x3dd8965f	0.10575556
152	0x3c4338c2	0.011915388
153	0xbdaa4ba7	-0.08315211
154	0xbd051725	-0.032492775
155	0xbd66ad64	-0.056317702
156	0xbd1af7d7	-0.037834015
157	0x3b8e8123	0.0043488904
158	0xbcdad931	-0.026714893
159	0x3b3f7e92	0.002921973
160	0xba954a1a	-0.0011389882
161	0x3d1bb609	0.0380154
162	0xbd5ddb04	-0.054163948
163	0xbba5c4b3	-0.0050588488
164	0xbc30757b	-0.010770197
165	0xbd5edb8c	-0.054408595
166	0xbd1b1f4a	-0.037871636
167	0x3c9505d0	0.018191248
168	0xbe0b0499	-0.13575973
169	0xbcb7b603	-0.022425657
170	0x3c94b1ad	0.018151129
171	0xbc357fd0	-0.011077836
172	0xbb025705	-0.0019888293
173	0xbd2c33e3	-0.04204167
174	0xbd1bd4a3	-0.038044583
175	0x3e670dcc	0.22563857
176	0x3dc0b063	0.09408643
177	0x3d1b3750	0.037894547
178	0x3bb0ced7	0.005395751
179	0x3cce490a	0.025181312
180	0x3de23a5f	0.1104629
181	0x3d501c67	0.050808337
182	0x3d1ecedf	0.038771506
183	0xbdc13885	-0.09434608
184	0x3d53033d	0.05151676
185	0xbb01ac31	-0.0019786472
186	0xbdc7b042	-0.097504154
187	0xbde52665	-0.11188964
188	0xbd294700	-0.041327477
189	0xbba28b1a	-0.00496043
190	0x3caade13	0.020857846
191	0xbcdf1491	-0.027231487
192	0xbd8dbe3d	-0.06921051
193	0xbdd551d1	-0.10415996
194	0xbc214d14	-0.009845037
195	0xbe1dd8b6	-0.154147
196	0xbdc3613e	-0.09540032
197	0x3db35ebd	0.08758304
198	0x3ca6468f	0.020297317
199	0xbd96638a	-0.07343204
200	0x3ca03a97	0.019559188
201	0xbd62f820	-0.05541241
202	0x3dc36ae3	0.095418714
203	0x3d828df6	0.06374733
204	0xbdfe8990	-0.12428582
205	0xbd46b4c0	-0.04851222
206	0xbd4e22ae	-0.050326042
207	0xbc5945ea	-0.013261298
208	0x3bc8deaa	0.0061300592
209	0xbd11cdf6	-0.03559681
210	0xbd3ad9c3	-0.04561783
211	0x3dce0077	0.100586824
212	0xb4af2809	-3.262542e-07
213	0x3cfd8e4a	0.030951638
214	0xbd7555b1	-0.059896175
215	0x3cb0ba0d	0.02157309
216	0xbc39ebae	-0.011347694
217	0xbba2f415	-0.0049729445
218	0xbe1f8166	-0.15576705
219	0x3cc36429	0.023851471
220	0x3d5b84dd	0.053593505
221	0xbdbfcc03	-0.09365084
222	0xbd835cee	-0.06414209
223	0xbc98f24b	-0.018670222
224	0x3c0a92ba	0.008457834
225	0x3c183c09	0.009291657
226	0xbd3e34ac	-0.04643695
227	0xbd811857	-0.063034706
228	0xbd626ccc	-0.055279538
229	0xbd4de662	-0.05026854
230	0xbd19a80c	-0.037513778
231	0x3c670167	0.014099455
232	0xbcbae25b	-0.022813013
233	0x3dc9f190	0.098605275
234	0xbdc8a57c	-0.09797189
235	0x3c397d0a	0.011321316
236	0xbd8d96b3	-0.06913509
237	0xbc746e1f	-0.014918833
238	0x3bd5109e	0.006502225
239	0x3ad257bb	0.0016047874
240	0xbc260546	-0.010133093
241	0x3dd464a7	0.103707604
242	0x3d67d936	0.056603633
243	0x3d997dfb	0.07494732
244	0x3d91a677	0.07111829
245	0xbcdfa84e	-0.027301934
246	0x3dbec7d0	0.09315455
247	0xbc36551f	-0.011128693
248	0x3b5e8ba6	0.0033957749
249	0xbcd06a08	-0.025441185
250	0x3b9bf609	0.0047595543
251	0x3db2e5b9	0.08735222
252	0x3c9c6c71	0.019094678
253	0x3d29a428	0.041416317
254	0xbc940277	-0.018067582
255	0x3ac5e832	0.0015099107
